7_project_examples/Gamma/AutogluonModels/ag-20240122_130939/models/NeuralNetFastAI/model-internals.pkl (torch, 163866 bytes, 19 tensors)

weight f4 [4, 3]
00000000: f8c2 09bc e8fc 303c e041 2cbc 1507 293e
00000010: 79ac 353e 900c 70be c374 21be 6312 2bbe
00000020: 8825 133e 6c58 4c3e 1695 123e 6546 62be
-0.008408301 0.010802485 -0.010513753 0.16506608 0.17741574 -0.23442292 -0.15767197 -0.16706233
0.14369786 0.19955605 0.14314684 -0.22097166

weight f4 [4, 3]
00000000: 1396 25bc c00d a1bb 3ed7 2f3b 9ae0 17be
00000010: daa5 52be 30d4 5dbe 88fe 303e e758 473e
00000020: b498 223e 92eb 16be 12d8 1dbe ca40 47be
-0.010106581 -0.004914969 0.0026831175 -0.14831772 -0.2057108 -0.21662974 0.17284596 0.19467507
0.15878564 -0.147383 -0.15414456 -0.19458309

weight f4 [9, 5]
00000000: 5d94 90bd 69cc d0bd 7662 663d 109c da3c
00000010: 11a4 4b3d 55c4 543e 6c44 01be e787 a5bc
00000020: f3ac 973d 1c98 6f3e 8230 b0bc 23f5 9ebd
00000030: 6671 53bd 1de7 83bd dd96 a43d 37a2 413d
00000040: 1bb1 1ebe cd0d 363c 0ec8 a53d 94f0 8e3b
00000050: b6ae 023d a9fc 7fbb ad69 94bd 9335 003c
00000060: c1a3 803d a019 a6bd b864 2e3c 94a7 17bd
00000070: 6f5a b3bd b36b d53d 4c3c 84be b3d5 85be
00000080: 7360 843e 6dff a5be 623d 0f3e 0a3c 213c
00000090: bd89 d7bd 9a3f f13d d4ad 6b3a 86c3 2e3d
000000a0: 11e5 bf3d 59eb 3d3e 85f7 07be e159 e63d
000000b0: 8510 193c
-0.07059548 -0.10195238 0.056246243 0.026685745 0.049717013 0.2077802 -0.12623757 -0.020206405
0.07406034 0.23397869 -0.021507505 -0.077616 -0.051621817 -0.06440566 0.080365874 0.04727384
-0.15497248 0.011111689 0.08094798 0.0043621752 0.0319049 -0.003906051 -0.072467186 0.007825273
0.062812336 -0.08110356 0.01064413 -0.03702505 -0.08757483 0.104209326 -0.25827253 -0.26139602
0.25854835 -0.32421437 0.1398826 0.009840975 -0.10524318 0.11779709 0.0008990441 0.042666934
0.09369863 0.1854681 -0.13278015 0.11247612 0.0093423175

weight f4 [8]
00000000: c5e1 373f 881d 423f 25e4 533f b352 843f
00000010: fe9f 9b3f 7787 563f b837 623f 81b3 4a3f
0.7182887 0.7582631 0.82769996 1.0337738 1.2158201 0.8380045 0.8836627 0.7918015

bias f4 [8]
00000000: 820c c53d f84a bcbd 0fd0 0cbe 8e99 8d3d
00000010: 48b5 1abc ea90 c53d 8951 b33d 8838 953d
0.09621526 -0.09193987 -0.13751243 0.06914054 -0.009442635 0.09646781 0.08755786 0.07286173

running_mean f4 [8]
00000000: 8c0c 0dbb 9045 bf3b 7763 a3bb bedc b1bb
00000010: 38d5 c63b fedc 5d3b 874a a13b 9871 173c
-0.002152237 0.00583715 -0.0049862224 -0.005427926 0.006067898 0.0033853645 0.0049222144 0.009243391

running_var f4 [8]
00000000: 6923 793f a697 793f 758a 7e3f db29 403f
00000010: 5cdc 7d3f 5037 963f 5ddc a63f fc2e 843f
0.97319657 0.9749702 0.9943002 0.75063866 0.99164367 1.173563 1.3036 1.0326838

weight f4 [200, 19]
00000000: 839d 923b d6ef c7be 9d82 3d3e 94d6 da3e
00000010: 8584 943e 0a60 513e 4d8a 6bbe 52e2 7b3e
00000020: 3e43 b3be 7b50 00be d183 69be 1e50 99ba
00000030: 391d b1bb a173 70bc 1cb2 e6bd 36db a73e
00000040: ecc7 f23c 5d03 30be ef5c 203d c0f2 9bbe
00000050: 4953 60be 0a66 543e b2e0 7c3e 7ef1 cb3e
00000060: b162 163e 769e 58bc 4109 6f3e 59e2 a0be
00000070: d849 8f3d 86db a1be e590 4b3d 3f6d 2dbd
00000080: 63bb 8bbd cb98 9bbc fabb 693e bc4b fabd
00000090: f353 dcbd f57f e63c eed2 eabe 4b95 ddbd
000000a0: 7c8d e23d 273f d93d e184 413d d68e b93e
000000b0: fa9f cb3c 7ac1 103e da62 653e f17f 03be
000000c0: 0081 233d f535 503d 5d3c 143e 4fb5 db3d
000000d0: 218a 97be a21e b4bd 01c0 e2bd 3a25 0a3e
000000e0: cfda 42be 9a72 9dbe 5181 4c3d bf9f 44bc
000000f0: 269d 9cbd 820c 893c 15ee 86bd 8545 89be
00000100: 9dfd 39be d3cb 683e 7d38 f5bd 1d05 293e
00000110: b3b4 46bd 9452 cb3c 1cf8 e2bc ad23 4cbd
00000120: 5a07 9dbe 9799 5e3d 85f5 bb3c a315 3c3d
00000130: 1c73 83be 1c8b b8be f78d ba3e b671 3c3d
00000140: 2b27 743e f805 bf3d aaba 29bd 0d3c c03d
00000150: 6448 efbd bdf0 823d bfae 9839 571b b5be
00000160: e445 10bd a093 8f3c b4eb 343d 743a 183d
00000170: f310 bebe 3c40 05be 665a c33d 8163 c8bd
00000180: ef85 523d 4af2 443e 2186 613d f2b3 033e
00000190: 0aba 513e e79c e1bd 11ce 7e3e 3586 ffbd
000001a0: 2116 cabe a9af 863a 044f 3f3e ca53 283e
000001b0: c824 833d be60 603a 0455 503e 5687 de3b
000001c0: 2f1f f3bd b41f 8dbd d6cd f73e ecb8 b83e
000001d0: 962d cebe 026e 4abe 18ac 16be c1ba 9dbd
000001e0: 6db5 ba3d 0b4e fe3e 5ffd 9abe 4d91 80be
000001f0: a108 b5bd fccd 963c e292 abbd dba4 b23c
00000200: b64e e43d bd06 773e e1d0 28bd 4fc2 6f3c
00000210: b17d 673a c585 893d 6301 3cbe 47af 3b3e
00000220: ce1f 863e 7574 983e 1370 1a3e 53a9 603e
00000230: d02c bbbd 9be1 52bd 1483 19be 3217 b4be
00000240: 4cad 1cbe 2976 de3d f105 a53d 8ad7 d43d
00000250: 5ca5 b63e 50ca 8abe df9c 2dbe 033d b7bc
00000260: b90d 0dbd 1773 7a3e e262 6abe 3a72 64be
00000270: 91a5 a3be e3a4 62be fe7d 44bc 35c5 df3e
00000280: 4bbf eebd 3232 9abd 662c 14bd 9429 1dbd
00000290: a681 5b3d 7176 823d a156 e13d d8a2 8b3e
000002a0: be68 e03d 55f7 433e b486 d7bc a633 df3e
000002b0: ab80 a73e ff34 dbbe 67cb b9be 223b a0be
000002c0: dd10 cabe 395c 6c3e 6cc2 523e d9b8 07be
000002d0: 906a 15bd 5c5e fe3d c659 bf3d 11d1 023d
000002e0: e11c c8bd 7fcb 123e cff9 543e a4b3 29be
000002f0: beb9 6c3e d32d a93d 966e 723b d96b 183e
00000300: 3bd7 40be 48c5 6dbd f1fd 1e3e f56d e5bc
00000310: d8e3 1bbe 1855 0d3e 4b4c 22be 0836 34be
00000320: b91d 2cbd 3e52 a63d 0b52 083d a7fc a2bd
00000330: 7b89 47be c232 873e 3ea3 cc3d 2051 7fbe
00000340: 2b75 99bc 7e99 65bd f930 54bc 4ea3 4dbc
00000350: af3a 8fbe d5ae c9bd a43c 9c3a 004a f33d
00000360: 1462 21be cb66 b0bd eb7e 173e 13ba 44be
00000370: ffc0 d43d 42f0 12be 24b6 81be 66b1 a6be
00000380: 0417 96bc b6c4 2c3e 6a57 12be 014f 1d3e
00000390: 70f6 6cbd f2d2 cf3d e8c7 cb3a e6f4 91be
000003a0: eddf fb3d 84b1 9c3d 2d8b 4c3e 90fa 8a3e
000003b0: 1f5f 9ebe 4d6c 673d 13fb 62be 0fa7 ff3d
000003c0: 16d0 66be 5ecb 5e3d d741 83be 2217 8abd
000003d0: 8d92 093d 3519 12be 8693 a93d 5f76 c43e
000003e0: 56ce 5d3e 0faf 8fbe c897 8fbe ac5c 25be
000003f0: 7cbe d43c 98ba e03e f7c7 c03e 32af 9fbe
0.0044743433 -0.39050168 0.18506856 0.42741835 0.29007354 0.20446792 -0.23001976 0.24598053
-0.3501224 -0.12530701 -0.2280419 -0.001169685 -0.005405095 -0.014676006 -0.112644404 0.32784432
0.029636346 -0.17188783 0.03915113 -0.3045864 -0.21906771 0.2074205 0.2469509 0.3983268
0.14686085 -0.013221374 0.23343374 -0.3142269 0.069965065 -0.31612796 0.04969873 -0.042340513
-0.068228506 -0.018993756 0.22825614 -0.122214764 -0.107581995 0.028137187 -0.45864052 -0.10819491
0.11062142 0.106077485 0.047245864 0.36241788 0.024856556 0.14136305 0.2240099 -0.12841775
0.039917946 0.050832707 0.14476152 0.10727941 -0.29597571 -0.08794905 -0.11071778 0.13490763
-0.19028781 -0.30751497 0.049928013 -0.012000977 -0.07647161 0.016729597 -0.06588379 -0.26810852
-0.18163152 0.22734003 -0.11973665 0.16505857 -0.048512172 0.02481965 -0.027706198 -0.04983871
-0.3066967 0.054345693 0.022944221 0.045919072 -0.2567376 -0.36043632 0.36436436 0.04600688
0.23843066 0.0932731 -0.041437782 0.09386454 -0.11683729 0.063935734 0.00029121895 -0.3537242
-0.035222903 0.017526448 0.044170097 0.03716512 -0.37122306 -0.13012785 0.095387265 -0.09784604
0.05139726 0.19233051 0.055059556 0.12861612 0.20481125 -0.11016255 0.24883296 -0.1247677
-0.39470008 0.001027574 0.18682486 0.16438213 0.064035 0.00085593376 0.20344931 0.0067910356
-0.11871182 -0.068908125 0.48399228 0.36078584 -0.40269154 -0.19768527 -0.14714086 -0.07701636
0.091166355 0.49668917 -0.30271432 -0.25110856 -0.088395365 0.018408768 -0.08377625 0.021807125
0.111478254 0.24123664 -0.041214827 0.014633729 0.000883068 0.06714968 -0.18359904 0.18328582
0.2619614 0.2977635 0.15081815 0.21939592 -0.09139407 -0.051484685 -0.14991409 -0.35173947
-0.15300483 0.10862381 0.08057774 0.10392673 0.35673034 -0.27107477 -0.16954373 -0.02236796
-0.034436915 0.24457966 -0.22889283 -0.22309199 -0.31962255 -0.22133212 -0.0119929295 0.43705145
-0.1165758 -0.07529105 -0.036175154 -0.03836973 0.05359044 0.06370247 0.11002851 0.27272677
0.10957478 0.19137318 -0.026309349 0.43594092 0.32715353 -0.4281387 -0.36287996 -0.31295115
-0.3946599 0.23082055 0.20581979 -0.13254108 -0.03647858 0.12420341 0.09343295 0.031937663
-0.09771133 0.1433544 0.2079842 -0.16572434 0.2311773 0.082606934 0.0036992184 0.1488489
-0.18832104 -0.05804947 0.15526558 -0.028006533 -0.15223634 0.13801992 -0.15849416 -0.17598736
-0.042020533 0.08121155 0.033281367 -0.07958346 -0.19486038 0.26405913 0.099920735 -0.2493329
-0.018732628 -0.056054585 -0.012951129 -0.012551142 -0.2797446 -0.098478 0.0011919928 0.11879349
-0.1576007 -0.08613356 0.14794509 -0.19211607 0.103883736 -0.14349464 -0.25334275 -0.3255722
-0.018321522 0.16871914 -0.14291158 0.15362169 -0.05785221 0.101476565 0.0015547248 -0.28507155
0.1229857 0.07651046 0.19974966 0.2714429 -0.30931947 0.056499768 -0.2216609 0.12483036
-0.22540316 0.054393165 -0.2563617 -0.067426935 0.033587027 -0.14267428 0.08280091 0.3837156
0.21660742 -0.28063247 -0.28045487 -0.16148633 0.025969736 0.4389236 0.3765256 -0.3118835

weight f4 [200]
00000000: 8826 843f 8173 8d3f d100 753f 97e6 7e3f
00000010: 3cf9 893f 6143 643f 6129 883f 8b19 833f
00000020: 97d4 803f dd80 803f d184 753f 2a32 793f
00000030: 0cfa 743f e707 873f 9c04 853f 8a10 873f
00000040: c924 763f 1cd0 763f 71ac 873f 52ea 7e3f
00000050: af35 8a3f 3d60 8b3f c76f 6f3f 1e68 853f
00000060: 3fc6 843f 4b96 613f 0f93 853f 63c7 7f3f
00000070: 7559 7b3f e620 963f 2f1a 643f 632b 7d3f
00000080: 7889 813f e7d6 703f edad 783f f1eb 893f
00000090: def8 803f 98c3 6e3f 9cec 753f b00d 7b3f
000000a0: 77ee 763f 7c87 843f 99a4 823f 03d6 803f
000000b0: 23b0 7d3f 632d 7a3f 4d88 6e3f 8996 863f
000000c0: 1fb5 893f ca61 863f 6823 893f 6aca 783f
000000d0: efde 5c3f 489e 893f aff9 643f dfa7 723f
000000e0: ad14 643f bf9f 8e3f 8703 5a3f 71d5 6c3f
000000f0: 19cb 843f fe83 7a3f 11df 6c3f f3a3 803f
00000100: 537c 7b3f cfbe 6a3f b4fb 773f 3144 733f
00000110: a72a 823f e0e4 673f 0802 9b3f 46e3 8c3f
00000120: c941 8c3f d225 7a3f 185f 5d3f c727 8d3f
00000130: d5aa 773f ff9c 763f e7c1 773f c429 753f
00000140: 6ada 843f e3a9 7c3f 93a3 6e3f 06a1 753f
00000150: 7ee8 623f d95f 873f ca65 783f c68f 793f
00000160: 4e3e 873f 50b3 773f 6168 713f d692 683f
00000170: 1dce 793f 64e5 853f d25e 803f af1d 853f
00000180: c985 803f c502 6e3f 349a 8b3f 82e0 813f
00000190: f9de 763f 8912 883f 0808 773f 2154 8f3f
000001a0: 381f 6e3f b258 793f f9b8 7b3f f3c9 873f
000001b0: 41e4 913f cece 893f 3714 813f 534f 743f
000001c0: 494a 6a3f 2c7e 7c3f 97f4 683f 7ed6 783f
000001d0: da5d 703f 5346 763f eaf2 683f d69d 803f
000001e0: 0417 813f 4876 8e3f cf01 893f b981 7e3f
000001f0: 31b3 7e3f 3eba 903f 924a 773f dfd9 7b3f
00000200: da5f 803f 9c7e 773f bf8f 833f cf7c 803f
00000210: 141e 863f d7bd 843f 62be 783f 9ba9 7d3f
00000220: 20ce 8b3f fbf1 893f 09e8 813f 1dd4 6d3f
00000230: 2add 703f 7bfd 6a3f e416 843f 8040 713f
00000240: 6b2a 773f 65b2 7c3f 3861 843f 8d39 863f
00000250: 17e2 7c3f 3733 793f b74f 7f3f 43f6 713f
00000260: d339 653f f647 713f c66e 803f 3dc0 773f
00000270: 9536 5e3f 945a 853f 6a8f 743f 8c2f 8f3f
00000280: 4486 943f e6fd 763f d9e3 903f 1e8f 713f
00000290: 632d 8b3f 16cf 883f 7298 723f 6a56 703f
000002a0: e6a4 823f cbaf 733f 86e5 843f e223 753f
000002b0: b089 463f a303 853f d506 823f 57a2 7b3f
000002c0: c725 613f ee45 8a3f 15f0 853f 3c7c 7b3f
000002d0: 7d0c 5f3f 844c 6f3f 49af 913f 3793 853f
000002e0: 69e8 833f 588c 6e3f 10c6 6f3f de51 843f
000002f0: bcf9 6b3f 46f9 803f 2b1b 703f c2a7 583f
00000300: 7eaf 753f ff0e 7d3f d7dc 713f 3e01 883f
00000310: 8b3f 623f 0736 7d3f 0a2f 823f f974 703f
1.0324259 1.1050874 0.9570437 0.995706 1.0779185 0.8916531 1.0637628 1.024217
1.0064877 1.0039326 0.95905787 0.9734217 0.9569404 1.0549287 1.0392032 1.0551922
0.9614988 0.964113 1.05995 0.99576294 1.0797633 1.0888745 0.93529934 1.0422399
1.0373 0.88119954 1.0435504 0.99913615 0.98183376 1.172879 0.89102453 0.9889433
1.0120077 0.94077915 0.9714039 1.0775129 1.0075948 0.932672 0.9606416 0.9806776
0.9645762 1.0353847 1.0206481 1.0065311 0.9909689 0.97725505 0.9317673 1.051469
1.0758399 1.0498593 1.071393 0.9718386 0.8627767 1.0751429 0.89443487 0.947874
0.8909405 1.1142501 0.8516163 0.92513186 1.037448 0.97857654 0.9252787 1.0050033
0.9823658 0.916974 0.96868443 0.95025927 1.0169266 0.9058361 1.2109995 1.1006858
1.0957576 0.9771396 0.86473227 1.1027764 0.96745044 0.9633331 0.96780246 0.95766854
1.0379155 0.98696727 0.93218344 0.9594883 0.88636005 1.0576125 0.9703032 0.97485006
1.0565889 0.96757984 0.94299895 0.90849054 0.9758013 1.046063 1.0028937 1.0399684
1.0040828 0.92972976 1.0906434 1.0146639 0.9643398 1.0630656 0.9649663 1.1197549
0.93016386 0.97400963 0.9832912 1.0608505 1.1397783 1.0766237 1.0084294 0.9543354
0.915196 0.98630023 0.90998214 0.9720229 0.93893206 0.96201056 0.9099566 1.0048168
1.0085149 1.1129847 1.0703677 0.9941669 0.99492174 1.1306837 0.9659816 0.9837932
1.0029252 0.96677566 1.0278243 1.0038089 1.0477929 1.0370435 0.971655 0.9908692
1.0922279 1.0776972 1.0148937 0.92901784 0.9408747 0.9179303 1.0319486 0.94239044
0.965491 0.9870971 1.0342169 1.0486313 0.98782486 0.9734377 0.9973101 0.9451639
0.8954136 0.9425043 1.0033805 0.9677771 0.86802036 1.0418267 0.9553133 1.1186385
1.1603475 0.9648117 1.1319534 0.94359004 1.0873226 1.0688198 0.94763863 0.9388186
1.0206573 0.95190114 1.0382545 0.9575788 0.77553844 1.0391735 1.0158335 0.98294586
0.8794827 1.0802591 1.0463892 0.9823644 0.8712843 0.9347613 1.1381618 1.0435551
1.0305301 0.931829 0.93661594 1.0337484 0.9217794 1.0076072 0.93791455 0.8463098
0.95970905 0.9885101 0.944776 1.0625379 0.8837821 0.98910564 1.0170605 0.93928486

bias f4 [200]
00000000: bf3b eaba 70bf e2bd 5712 6e3d 1b2e 063c
00000010: 7248 74bd d52d 3fbe a76a 3cbd 9456 dfbc
00000020: bf4f 14be 5c62 553d bf6b 9ebd 2761 eb3d
00000030: ac92 653e a647 773d 25b9 40bd d541 583d
00000040: 38b5 3c3d 5ce1 c3bc f0cd 4ebe 9504 023e
00000050: 78c4 d03d 556c f83d c5c5 01bd a1bd 20bd
00000060: 09c4 2dbe 0e58 043d 8980 d4bd dd0f 183e
00000070: d2fe 8f3c 75a9 47bb 96d1 af3d 105e 9cbd
00000080: 54b2 3ebe a83f 3cbb 00e1 d8bb 1a03 ebbc
00000090: 30e8 5e3d 42ed 1ebd e9b0 503e 3cc3 133c
000000a0: a966 5a3d aaef 07be ba89 283e 9ed7 e83d
000000b0: 7427 5cbe 2542 8c3e c383 0a3e 7a48 da3c
000000c0: 8260 66be 3b52 083e 2aa3 9cbd 4f67 3dbd
000000d0: 0131 d63d 30c2 ecbd dba6 2d3d 6fd1 cebd
000000e0: 04ba 2e3e 7b7a d9bc 939d f13a f2b6 f03c
000000f0: 3d74 213e c98b ecbd 0e3b 0dbe 9819 c33d
00000100: 6569 e9bc 7ffb 97bc c582 2e3d 95e1 383e
00000110: 2219 8d3d 7a9b 633e baf4 81bd c66d f1bc
00000120: 1f1e 33be 62b8 90bd ae78 9a3d 0438 943c
00000130: 4251 603d 92f3 1c3e 898a 293e 6aa3 6cbc
00000140: e0fc 90be 1ca6 623d d7a8 cb3c 5b98 68bd
00000150: a96a 56bd ab96 54bd 02b2 eb3d 6f6b 98bd
00000160: 778d fc3d 4667 ea3d 4cec 893d edd7 36bc
00000170: 52ee 443c 06a9 7bbb 03e8 e13c b4a9 dabd
00000180: 9773 1bbe 7047 f4ba c3ac a4bd aaa9 8e3d
00000190: a395 07be ea81 483c 40d8 4d3e 40c6 f63d
000001a0: 7d76 1b3d d669 49be 165b fd3c 157a 803d
000001b0: 2891 36bd e91a 38bd 9ca5 fe3d 2672 e53d
000001c0: 7e95 a0bd edb9 14be 6971 7bbd 3351 11bd
000001d0: dd76 9d3c 723d 363d 6751 22be 3626 81bd
000001e0: b044 d23d cb9c 4a3d bff9 edbd 04f7 243e
000001f0: 9b3e 8ebd f285 a5bb f8a3 2abd 2d05 c6bd
00000200: 9787 3ebe 080c 243c 476d 31bd 5bbf 9a3d
00000210: d3f2 4bbe 7501 52bd 79cc 4cbe fd35 09bd
00000220: 99ed 1f3e b017 df3d 16fc 573d a82e ca3d
00000230: 480e ddbd b7b0 8bbd d21b f5bc 6e56 873d
00000240: 3125 37be 4731 d83b b2d9 93bd a5a2 51be
00000250: 2e40 b3bd 3aa0 b9bd eacb a6bd 3e04 933d
00000260: 98eb 73bd 312d 0dbd 48bb 66bd d83f 6bbd
00000270: 89fb c5bc 7c6b 4d3c a69a 70bd 3de1 53bd
00000280: 9e01 063e 65e3 0a3e c6ef a3bd 9207 0bbe
00000290: 019a 063e d0d2 7b3e 2bbe c6bd 7ba3 163e
000002a0: f869 e93d 0365 7dbc c103 543d f3b6 68be
000002b0: 1f3c 6d3e d24e 033c a45e c03c 7e9e 463d
000002c0: 17d3 e5bc 774b 3e3e bffc d23d 66e0 a63d
000002d0: 954d 233d fb1c ddbd 7ffc 8fbd 22df 3f3c
000002e0: a8e3 a73c cc97 8cbd 2c20 573e 77a0 d53d
000002f0: 9374 923d 4e42 343d 390c 93be 2312 f4ba
00000300: a1d5 db3d dd94 0fbd b552 5c3d d3a0 fb3c
00000310: bf1f ebbd 2989 2cbe a8cf b03b b592 833d
-0.0017870589 -0.1107167 0.05812296 0.008189703 -0.0596394 -0.18669827 -0.04600015 -0.027262963
-0.14483546 0.052095756 -0.07735395 0.1149314 0.22419232 0.060371064 -0.047051568 0.052797157
0.04607126 -0.02391117 -0.20195746 0.1269706 0.101937234 0.12130038 -0.03168275 -0.039243344
-0.16969313 0.032310538 -0.10376079 0.14849801 0.017577562 -0.0030465994 0.08584897 -0.076351285
-0.18622714 -0.0028724466 -0.006618619 -0.028688002 0.05442065 -0.038800485 0.20379986 0.0090187155
0.05332056 -0.13275018 0.16458789 0.11369251 -0.21499425 0.27394214 0.13526826 0.026645888
-0.22497752 0.13312618 -0.076483086 -0.0462411 0.104585655 -0.11560476 0.042395454 -0.1009854
0.17063147 -0.026547661 0.0018433802 0.02938411 0.15766998 -0.115500994 -0.13792059 0.09526366
-0.028492639 -0.01855254 0.04260518 0.18054803 0.06889559 0.22227278 -0.06345506 -0.02947129
-0.17491959 -0.07066418 0.07542549 0.018093117 0.054764993 0.1532729 0.16556753 -0.014443258
-0.28317928 0.055334195 0.024860783 -0.056785922 -0.052347813 -0.0519015 0.11508562 -0.07442366
0.1233167 0.11445479 0.06734523 -0.011159879 0.012019711 -0.0038400306 0.027576452 -0.106768996
-0.15180813 -0.0018637013 -0.08040764 0.069659546 -0.13240676 0.012238005 0.20102024 0.12049532
0.037954796 -0.1966928 0.030927222 0.06273285 -0.044572026 -0.04494754 0.12433931 0.11203413
-0.07841013 -0.1452405 -0.061387453 -0.03547783 0.019221717 0.044492193 -0.15851365 -0.06306116
0.10267007 0.049465936 -0.11619901 0.16109854 -0.06945535 -0.005051368 -0.04166028 -0.09668956
-0.18606411 0.010012634 -0.043317106 0.075560294 -0.19916849 -0.05127092 -0.19999875 -0.033498753
0.1561798 0.1089319 0.052730642 0.0987218 -0.107937396 -0.06820815 -0.029920492 0.06608282
-0.17885281 0.006597671 -0.072192565 -0.204722 -0.08752476 -0.09063764 -0.08144362 0.071785435
-0.05955085 -0.034466926 -0.05633095 -0.057433933 -0.024167793 0.012537833 -0.058741234 -0.051728476
0.13086554 0.13563307 -0.080047175 -0.13577107 0.13144685 0.24592137 -0.097042404 0.147108
0.11397165 -0.015465978 0.051761393 -0.2272604 0.23167466 0.008014398 0.023482628 0.048490994
-0.028054757 0.18583475 0.10302114 0.08148269 0.03986891 -0.10796543 -0.07030582 0.011710914
0.020494297 -0.068648905 0.21008366 0.10430997 0.07151141 0.044008546 -0.28720263 -0.0018621128
0.10734106 -0.035054076 0.053789813 0.030716335 -0.114806645 -0.16849197 0.0053958483 0.064244665

running_mean f4 [200]
00000000: 6565 4e3e ef87 1b3e 3ef6 203e 68b4 643e
00000010: a652 ca3d dbd9 0f3e f869 c73d ed20 4b3e
00000020: 2fda d13d 06cd 223e 914e 2d3e c210 323e
00000030: 62ee 673d c568 b63d 04be 643e da95 1a3e
00000040: ef78 c13d 2353 423e 4a26 673e 0af1 5b3e
00000050: 0cb6 0e3e c7b7 843d 1030 8a3e f486 3b3e
00000060: 5fa0 133e 8b6b 363d 8d51 633e 4fce d43d
00000070: ad2a 373e 5f11 4b3d 40b2 1c3e cd94 1b3e
00000080: 4235 063e 858f 643e 02d3 a23d c72b 393e
00000090: 76c6 2a3e 349e 273e 8405 463e 68bf 6b3e
000000a0: fed8 0e3e 9f59 2c3e 390a b13d 22ab d33d
000000b0: c040 283e 8196 3a3d 0b61 303e a080 493e
000000c0: 1ce8 913e c03a c53d de59 153e 445b 353e
000000d0: 2cb2 e33d 1cfe 333e 479c 3b3e 3d26 043e
000000e0: 280d e03d 817d 5c3e 9676 fd3d 069d 293e
000000f0: 5ba0 ba3d 3dec 413e 99f1 4f3e 0790 153e
00000100: 0565 a63e 30ba b93d 3a3c 3e3e 1bec ef3d
00000110: 1bc3 0d3e 7874 543e b234 be3d 0250 673e
00000120: ccc8 543e 3eef 223e cd99 c43d 7131 7e3d
00000130: b1ff f13d e076 023e a2cb 4a3e d70e 073e
00000140: 018b 0b3d 92d2 333e af6b 5b3e a2e8 6d3e
00000150: 20cf 383e 7b6e 5f3e b3b1 013e bdf5 c33d
00000160: 112a 363e b071 023e 4a70 483e 62e1 e43d
00000170: 9a56 833e 76a9 e93d 1380 6f3d 3d0b 463e
00000180: 6e9a 383e 8265 c33d 5541 ae3d 0874 fd3d
00000190: 3254 0e3e e55b f83d af20 d13d 857a 073e
000001a0: eaba 473e 303b 403e 39c7 973d afb2 223e
000001b0: 576a 403e 6444 e23d e31b 673d d615 323e
000001c0: c6e9 153e c037 d53d 4603 393e 1aab a73e
000001d0: dba0 5d3e 304a 0a3e 7c16 083e bfbc 7a3e
000001e0: 6fa5 013e 3a1c 003e 9702 0f3e 9fd0 ea3d
000001f0: 5e2e 573e d734 bc3d 6620 bf3d 173d fd3d
00000200: 7ac2 3f3e 1d88 333e 55fd a43e 905d 583e
00000210: c2ae 4d3e 26a6 e53d 390b 093e ead9 313e
00000220: 90dc e63d ca3f b23d 07ce 183e 72ec be3d
00000230: b32b 163e fc31 0e3e 02a7 503e f2cb d63d
00000240: c748 223e 5de4 153e fa09 103e a98d 4d3e
00000250: 2e35 2a3e a694 3c3e a40e 623e 8034 0f3e
00000260: b8f9 693e f21f 283e 407e e53d 838c ce3d
00000270: 4b9c f13d 8dce 6c3e 4c98 5a3e 3bf4 4c3e
00000280: a4d5 503e a54c 073e 815d 473e dc60 6a3e
00000290: 6344 e13d 11ee 703d 2b33 1a3e c8a8 023e
000002a0: a6bd 083e 3d42 013e 3709 483e 1977 303e
000002b0: 14ae ea3d d429 5f3e 085a f53d 2ba3 513d
000002c0: 919e 743e 758c e93d 9c7b 653d bf2e bf3d
000002d0: 3c8e 813e 1fec c23d 0259 293e 704f 163e
000002e0: f05f 933d abe6 023e 5a5c 643d 42cb b23d
000002f0: dc50 eb3d ee87 0e3e ca24 753e d37c 0a3e
00000300: 7a20 6f3d 7bf1 2a3e 82fb 543e 78ba 283e
00000310: 3265 313e d9cb 6e3e d599 4c3e ef10 d23d
0.20155866 0.15188573 0.15718934 0.22334445 0.09879045 0.14047949 0.09737009 0.19836779
0.10246693 0.15898523 0.16924502 0.17389205 0.056623824 0.08906702 0.2233811 0.15096226
0.094468944 0.18977027 0.225732 0.21478668 0.13936633 0.06480365 0.26989794 0.183132
0.14416645 0.044536155 0.22199078 0.10390913 0.17887373 0.049577113 0.15302372 0.15193482
0.13106254 0.22320373 0.07950403 0.18083106 0.1667727 0.16368943 0.19338042 0.23022234
0.13949963 0.16831063 0.08644528 0.10335375 0.1643095 0.045553688 0.17224519 0.19677973
0.28497398 0.09630346 0.14585063 0.17710596 0.11117968 0.17577404 0.18321334 0.12905212
0.10940009 0.21532251 0.12376134 0.16563806 0.09112617 0.18937774 0.20307006 0.14605723
0.32498947 0.090687156 0.18577662 0.117149554 0.13843958 0.20747554 0.092873946 0.22589114
0.20779723 0.15911576 0.09599648 0.06205887 0.118163474 0.1274066 0.19804242 0.13189255
0.03406811 0.17560795 0.21427797 0.23233274 0.18047762 0.21819489 0.12665443 0.09568355
0.17789485 0.12738681 0.19574085 0.11175801 0.2565201 0.11409275 0.05847175 0.19340225
0.1802766 0.095408455 0.08508555 0.12375647 0.13899305 0.121269025 0.10211312 0.13230331
0.19504896 0.18772578 0.074110456 0.15888475 0.18790565 0.11048201 0.05642308 0.17391142
0.14639959 0.10411024 0.18067655 0.32747728 0.21643393 0.13504863 0.13289827 0.24486063
0.12660764 0.12510768 0.13965832 0.114655726 0.21013781 0.09189766 0.093323514 0.123651676
0.1872653 0.17532392 0.32224527 0.21129441 0.20086196 0.11213331 0.13383187 0.17368284
0.11272538 0.08703573 0.14922343 0.09322442 0.14665107 0.13886255 0.20376208 0.10488118
0.15848075 0.14637895 0.14066306 0.2007357 0.16621849 0.1841608 0.22075897 0.13984871
0.22849166 0.16418436 0.11205721 0.10085394 0.11797389 0.23125668 0.21347159 0.20015042
0.20393997 0.13212831 0.19469263 0.22888511 0.10999372 0.058820788 0.15058582 0.12759697
0.13353595 0.12622924 0.19534765 0.17232932 0.11458984 0.217933 0.11980063 0.051181
0.23888613 0.11403743 0.056026086 0.09335088 0.2530383 0.09517693 0.1653786 0.1467874
0.07196033 0.12783305 0.055752136 0.087301746 0.11490032 0.1391904 0.23939815 0.13524179
0.05838058 0.1669368 0.20799068 0.16477382 0.17323759 0.23319949 0.19980557 0.10257136

running_var f4 [200]
00000000: b06d b93d e1aa 5d3d 7820 f83c f9a6 7f3d
00000010: 9d10 923c edf2 493d 3583 f13c 7ff9 d23d
00000020: 75d4 be3d ca65 983d 6985 1d3d 00ab a93d
00000030: 0882 613c 32b3 893c 29d4 003e 285b 343d
00000040: 00bb 873c b303 783d efc9 843d 0fb4 193e
00000050: 7fa8 e03c ec21 8a3c f54f b83d 6157 923d
00000060: 159e 813d eb4e 153d d10d be3d 05b5 913d
00000070: a6e6 943d 24bb d83b e4d4 fc3d 31e8 543d
00000080: ce03 2c3d 7e9e 9c3d b340 6e3c 049e a73d
00000090: 1714 1a3d a8ee 483d 03b4 cd3d 6f37 e23d
000000a0: 3c71 8d3d 9166 753d 83e7 053d 2bae 313d
000000b0: 377e 783d 3527 363c 5f91 3f3d c151 653d
000000c0: 2ca6 ff3d e5bd 283d 1b95 273d 7c37 933d
000000d0: 2269 3c3d 1f6d 723d 4d46 aa3d 7907 513d
000000e0: 5452 bd3c a715 a63d cb8a aa3c f738 b93d
000000f0: 48f6 d53c 720c 1e3e 70fa 0d3e df3f 0c3d
00000100: 403d 333e acc7 1c3d 2698 763d fb69 883d
00000110: 45d8 313d 7280 dd3d 790e 9c3c 914a b23d
00000120: 33ea 893d 4416 6f3d 8b67 1f3d 27b5 3f3c
00000130: e7f8 1e3d f1ca a53d 584e 3a3e f00f f53d
00000140: 5a8e 003c 6eb4 a73d 47c2 263e 5e82 553e
00000150: 36dd 853d 095d ac3d 61b1 103e 4ff5 c63c
00000160: 932b 5e3d 5751 993d caf4 393d 0b54 083d
00000170: 332b 9d3d 5da6 bb3d cab0 0c3c 257c 463d
00000180: 0cac 823d ce01 af3c a6d1 9a3c b310 053d
00000190: d706 263d 0dbe 2d3d 94eb 8a3d 0b0c 143d
000001a0: d819 3c3d be92 863d 8d14 5d3c 7472 3e3d
000001b0: aa36 723d 1a73 e03c c963 6c3c 15b5 d63d
000001c0: 1903 aa3c b074 423d 4078 d03d 9698 fb3d
000001d0: 3e4a 9f3d f118 9b3d edbc 2b3d 61ea da3d
000001e0: f552 333d 1e86 df3c b999 1c3d e865 273d
000001f0: e081 873d 0bba a63c 0209 d73c 25b6 c43d
00000200: 6c7d 7c3d 1b56 7b3d 911d fb3d 0339 043e
00000210: 203f 8c3d 6251 9d3c b426 393d bb66 8d3d
00000220: d3f1 c73c 0bc1 993c fd99 3c3d 7206 fb3c
00000230: 8ae5 9e3d 3940 0e3d 9fcb a43d b7c0 6b3d
00000240: f8d0 f03d 2423 633d a908 5a3d 4cbf 663d
00000250: a043 153d 5ff6 d53d 2c60 8d3d c2d6 ad3d
00000260: 26c4 c53d e968 413e c54a cb3c 8e56 d53c
00000270: 3d65 013d f89b 1f3e 702c ba3d 695e 3f3d
00000280: bf8e 983d 9350 223e a38d dd3d 2d44 833d
00000290: 64f5 ab3c 4721 513c e72f a73d 4ba5 db3d
000002a0: 8b2d 883d ab22 763d b3c9 8f3d bdb4 033d
000002b0: 8392 073d a84c d33d 6d20 c33c 76a2 513c
000002c0: 0a0f 6e3e e5bb b03c 2b7c 023c 6d3c 963c
000002d0: 102d 073e 9ff3 a73c 20a6 483d 3363 a03d
000002e0: d8a6 a43d 2994 da3c e66b 813c 86ea 003d
000002f0: eb49 6b3d 8b13 263d 585b 9f3d c632 8a3d
00000300: 7b62 063d bc81 993d 87c5 b93d 44a7 673d
00000310: e325 8e3d ce01 983d 93d8 be3d 5edc f63d
0.09054124 0.05411804 0.03028892 0.062415097 0.017830187 0.049303938 0.02948151 0.10301494
0.09317867 0.0744129 0.038457308 0.08284569 0.013763912 0.01680908 0.12580933 0.044032246
0.01656866 0.060550403 0.06483828 0.15010093 0.027424095 0.016861878 0.089996256 0.071455725
0.0632898 0.036452215 0.09279979 0.07114605 0.07270555 0.006614106 0.12345293 0.051979247
0.041995816 0.076474175 0.014541793 0.08184436 0.037616815 0.049055725 0.100441 0.11045729
0.06906363 0.059912268 0.03269149 0.04337899 0.060667243 0.011117746 0.046769496 0.05598617
0.12482867 0.041196723 0.040913682 0.07188317 0.0459987 0.059186097 0.0831419 0.051032517
0.023110546 0.081095986 0.020818135 0.09044068 0.026118413 0.15434435 0.13865066 0.0342406
0.17503834 0.03827636 0.060203694 0.06660839 0.04341914 0.108155146 0.01904987 0.08705629
0.06734123 0.058370844 0.038917106 0.011700905 0.03881159 0.080953486 0.18193948 0.119659305
0.007846439 0.08188711 0.16285048 0.20850512 0.06536333 0.084161825 0.14130165 0.024286894
0.054240774 0.074862175 0.045399465 0.033283275 0.07674255 0.09162591 0.008587072 0.048458237
0.063804716 0.021363165 0.018898796 0.03248663 0.040533867 0.042417575 0.06783214 0.036144298
0.045923084 0.065709576 0.013493669 0.04649587 0.059134163 0.027398635 0.0144280875 0.104837574
0.02075343 0.047474563 0.10179186 0.12284963 0.077778324 0.075731166 0.04192822 0.106892355
0.043780286 0.027285632 0.03823254 0.04086867 0.066165686 0.020352384 0.026249412 0.09605054
0.06164305 0.061361413 0.12261499 0.12912373 0.06847978 0.019203845 0.045202926 0.0690436
0.024407303 0.018768808 0.046045292 0.030642722 0.07758625 0.034729216 0.0804665 0.057556834
0.117586076 0.055453435 0.053230915 0.05633478 0.036441445 0.10447382 0.06903109 0.084882274
0.09656553 0.18887676 0.024815926 0.026042249 0.03159069 0.15586841 0.09090507 0.046720896
0.07449102 0.15851049 0.10818031 0.06409488 0.020991035 0.012764282 0.081634335 0.107248865
0.06649312 0.060091656 0.07020893 0.032154787 0.03309871 0.103173554 0.023819173 0.012795081
0.23247924 0.02157397 0.007964174 0.01833936 0.13200784 0.02050191 0.048986554 0.07831421
0.080396354 0.026681976 0.01579852 0.03147366 0.05744354 0.04054598 0.07781094 0.067479655
0.032808762 0.07495448 0.090708785 0.056556 0.0694082 0.07422219 0.09318652 0.120537505

weight f4 [100, 200]
00000000: 31a1 7abc b608 f2bd b366 04bd 57cf 33bd
00000010: b809 1abd f00a 42bd 5a73 3fbd e250 0ebd
00000020: 4e3e cfbd 406f 60bd e621 97bd 9683 95bd
00000030: 1eaf 66bc 3034 83bd 7efa 34be 8c1a f2bd
00000040: d162 713b ffc9 d8bd f602 98bd 440a 5c3c
00000050: 0829 87bd 0250 43bd 0905 04be 7a2a c5bc
00000060: 446d 12be 3405 d3bc e96d a4bc 48c4 d6bd
00000070: 999d 063c 0e00 61bd 98da 61bd d335 7fbd
00000080: 47d9 04bd 1721 abbd 3b31 4abc b99a bfbd
00000090: b577 25bc a19a 4ebd 919e babd c28e 15bd
000000a0: dabf 9dbd 1a76 6cbd b00c 2dbd 810f 11bc
000000b0: 947c 63bd 0627 ce3c 9516 9abd 439d 71bd
000000c0: b0fb b8bd e59c c4bd c276 86bd 2796 cfbd
000000d0: a2d2 17be b1be 4fbd 4dcf 98bb 0e0f 54bd
000000e0: a7a0 8abd 4e77 e2bd 1460 bbbc ed69 acbc
000000f0: d2f3 1d3c 4d61 39bc b88d 01be f25b 85bd
00000100: 7baa b7bd 4c70 cbbb 95a7 e53c d330 b73d
00000110: 650e ddbc 754a d1ba 499d eebd fc5c b9bd
00000120: cf8a a0bc ea51 06be b802 64bb 2d09 b0bb
00000130: f769 68bc 0d61 04be 206b 783c 0d31 58bd
00000140: 3db7 68bd 3a4f 2eb8 9076 2dbd 177d 2cbd
00000150: f007 d03c 4ff5 9dbd 109f 27bd bc66 983d
00000160: f1e8 6ebc 9ffa 673b 57cf b6bd 42bc 89bd
00000170: 2821 1fbe a4f5 f3bd 63c5 f9bd e0c9 0d3d
00000180: d86f bbba cfc0 6b3d 98b4 20bd a18f 1fbb
00000190: ece8 8bbc 8436 f4bc b1c2 5e3c ce9a 7d3c
000001a0: 4735 c7bd 7842 013d 3067 283c 45d6 b7bc
000001b0: e9f9 fdbd 3e2b 55bd cb30 62bd cc21 e4bc
000001c0: 5b8d 25bd 35ad 47bd fa82 48bd 3a2b e5bd
000001d0: d664 a13c 1872 623c af72 04be b170 d6bc
000001e0: f205 56bd 279b 663c 6863 a9bd 78d6 953b
000001f0: ebfe b4bc d9e8 75ba 59a0 99bd 41e1 0bbd
00000200: 9df8 d7bd a1a7 4bbc 15fa 943c fc9c f8bd
00000210: a3cd 9fbd 9958 203d 7307 79bd 1518 a4bc
00000220: e7be 3fbd ffda f5ba d22f 62bd 66e4 06bc
00000230: 789a 9a3b 63fc 1cbd 749f cdbd 6a8b 57bc
00000240: 0251 58bd d0f1 c6bc a2a4 17bd 42ee 0ebd
00000250: c5c6 56be 8156 b7bd 51e6 40bd 251c c6bb
00000260: 88c1 5bbd 5162 99bd b500 89ba 404c 08bd
00000270: bbf6 9cbc e349 21bd bce3 afbc 3612 303c
00000280: d29d 0ebd fc1a 6bbd 37ce ccbd 4bd8 84bc
00000290: 82a8 5dbd 2140 ed3c f25b 12be 5fb7 bfbc
000002a0: 5a01 5d3b 42dc 47bd 0f52 f1bc 9771 09bd
000002b0: 6fec 0e3d 41c5 82bc 23df 89bd 85af 423d
000002c0: c40d c5bd e442 d2bd 94e4 9abd 159b 1fbd
000002d0: 4922 36bd f9d7 ddbc 814e a13c 9545 dbbc
000002e0: 0e56 26bd eebb 4fbb 5e29 4dbd 2f4b 7fbc
000002f0: 5e7d f3bb e1e9 65bd 8135 59bd af0b a93c
00000300: 2dc6 3ebd cc3e c3bd 3e17 57bd 3842 bcbd
00000310: e3eb 11bd 9e8c cfbb baa5 c8bd dc79 893c
00000320: f315 263d 8d1e 1cbd 7dc0 0cbc e091 823d
00000330: 433e 5dbd 373c 01bd 00de a93d df11 003d
00000340: 309e 053e 98a6 ea3d 69b5 bcbc 8154 0e3d
00000350: d60c b2bc b8e1 f63b 7ea2 bb3d 2bb6 663d
00000360: 95e9 83bd 7c54 af3b bb07 f3bd af1a a33d
00000370: 565b 0c3d ea00 093c 161c 9f3c 4c5c e13c
00000380: 65df 6a3d eb53 e23d 2b5b 143d 2ab5 4e3d
00000390: 1ed6 b83a f593 47bd e33d 173d 96a2 1e3d
000003a0: fe29 893d 03fc 3abc 3c09 0fbd 70aa 82bb
000003b0: a6f8 df3b d4d6 95bb a925 f83d 03b5 983c
000003c0: f754 a83d 295d 683d 6fad 6f3c c2aa 13bd
000003d0: 39df 963c aab8 963d 5f3f b0bb 88bf 3fbb
000003e0: 7be0 72bd 0b0d 5d3c 1aba d53c 0776 98bb
000003f0: 8358 ca3c 8140 3e3d fabe 1fbd 739a ae3d
-0.01529722 -0.11818068 -0.032324504 -0.043898907 -0.037606925 -0.047373712 -0.046740867 -0.034745105
-0.101193056 -0.054793596 -0.073795125 -0.07300489 -0.014079837 -0.06406438 -0.1767368 -0.1182147
0.003683258 -0.10585403 -0.0742244 0.013430182 -0.06599623 -0.047683723 -0.12892546 -0.024068106
-0.14299494 -0.025759317 -0.02007194 -0.104866564 0.008216285 -0.054931693 -0.055140108 -0.06230719
-0.032433774 -0.08355921 -0.012340839 -0.09355683 -0.010099341 -0.050440434 -0.091122754 -0.036513098
-0.077026084 -0.057729818 -0.042248428 -0.008853794 -0.05553873 0.025165092 -0.075238384 -0.058987867
-0.090323806 -0.09600238 -0.0656562 -0.10136061 -0.14826444 -0.050718967 -0.004663384 -0.05177217
-0.06768923 -0.11057912 -0.022872962 -0.021046603 0.009640651 -0.011314702 -0.12651718 -0.06511678
-0.089680634 -0.006208455 0.02803401 0.08944859 -0.026984403 -0.0015967624 -0.116510935 -0.090509385
-0.01959744 -0.13117185 -0.003479166 -0.0053721876 -0.01418542 -0.12927647 0.015162259 -0.052781153
-0.056815375 -4.155862e-05 -0.042349398 -0.042111482 0.02539441 -0.077128045 -0.04092318 0.0744147
-0.014581905 0.0035397185 -0.08926266 -0.067253605 -0.15539992 -0.119120866 -0.12195852 0.03461635
-0.00143003 0.057556923 -0.039234728 -0.0024347084 -0.01707884 -0.029811151 0.013596223 0.015478803
-0.09726959 0.03155753 0.010278508 -0.022441039 -0.12401182 -0.052043192 -0.055222314 -0.027848147
-0.04041801 -0.048749167 -0.048953034 -0.111898854 0.019701403 0.013821147 -0.12934373 -0.026176782
-0.052251764 0.014075077 -0.08270913 0.004572686 -0.02209421 -0.00093807053 -0.07501287 -0.034150366
-0.10545466 -0.012430103 0.018185655 -0.121393174 -0.07802894 0.039146993 -0.06079812 -0.020031014
-0.046812918 -0.0018757283 -0.055221386 -0.008233165 0.004718121 -0.038326632 -0.10040179 -0.0131557975
-0.05281163 -0.024285227 -0.03702224 -0.03489519 -0.20974262 -0.08952046 -0.047094647 -0.0060458356
-0.053651363 -0.074894555 -0.0010452481 -0.033275843 -0.019160619 -0.039377104 -0.021470897 0.010746529
-0.034818478 -0.05739878 -0.1000027 -0.016216418 -0.05411578 0.028961243 -0.14292887 -0.023402868
0.003372273 -0.04879404 -0.029458074 -0.033555593 0.03489345 -0.015963199 -0.06732013 0.04753067
-0.09621766 -0.102666646 -0.07563129 -0.038966257 -0.04446629 -0.027080523 0.019690754 -0.026766578
-0.040609412 -0.0031697708 -0.05008828 -0.01558189 -0.0074307164 -0.056131247 -0.05302954 0.020635454
-0.046575714 -0.09533462 -0.0525124 -0.09192318 -0.03562535 -0.0063339015 -0.09797235 0.01678174
0.040548276 -0.038115073 -0.008590815 0.0637548 -0.054014456 -0.031551566 0.08294296 0.031267043
0.13048625 0.114575565 -0.023035722 0.034748558 -0.021734636 0.007534232 0.09161852 0.056326073
-0.064410366 0.0053506475 -0.11866709 0.07964074 0.034266792 0.008362034 0.019422572 0.02750983
0.057341952 0.11051162 0.036219757 0.05046574 0.0014101898 -0.048725087 0.036924254 0.038729273
0.066974625 -0.011412623 -0.034920916 -0.003987603 0.006835061 -0.0045727286 0.12116558 0.018641
0.08219331 0.05672947 0.014628752 -0.03605152 0.018416988 0.073594406 -0.005378648 -0.0029258449
-0.059296113 0.013491879 0.026089717 -0.004652742 0.024700409 0.046448234 -0.03900049 0.085255526

weight f4 [100]
00000000: 9add 853f 53af 743f ffa6 843f d972 723f
00000010: 2dab 833f a9ca 7f3f b724 773f 500a 873f
00000020: 1c3a 893f ce3b 7b3f 2a57 913f 02f5 653f
00000030: 3114 733f 456e 6e3f 6b9f 823f 614a 863f
00000040: 0ad1 663f 2d62 853f 9020 8c3f f2f5 823f
00000050: d026 8d3f 4a24 873f 4e77 8d3f 7d57 783f
00000060: 0854 633f 8816 843f d9bb 623f 7de9 6e3f
00000070: 6f3a 953f 3833 863f aa26 8f3f 622b 923f
00000080: f3de 7e3f 9061 853f bdd3 863f c180 843f
00000090: fb90 903f cf9a 833f 317c 8e3f a83f 633f
000000a0: 9c76 8b3f 3b87 873f ba94 5a3f bb82 573f
000000b0: 2c1b 803f 9e23 873f 85e9 823f 5608 6e3f
000000c0: 3113 803f a344 863f 0f9d 863f 0183 8c3f
000000d0: fffa 813f 889d 893f 5fe8 753f 568c 823f
000000e0: 6286 8f3f 9a2e 763f 1af0 7f3f 838c 833f
000000f0: 9a38 7e3f 5542 833f 913b 823f fe52 963f
00000100: 6668 8a3f 286c 8b3f be87 833f 800c 913f
00000110: a78e 8d3f e4c9 933f bccd 7f3f 6d5b 803f
00000120: 6738 923f bc87 703f a44b 8a3f 544d 813f
00000130: 36be 8d3f af08 863f b391 863f a50e 7c3f
00000140: 20aa 8e3f 1856 723f 5433 8e3f 2728 7d3f
00000150: d669 953f 4c6f 7b3f 57c1 7a3f 62a4 843f
00000160: 1191 823f 5e79 8e3f 9d69 843f f2b4 743f
00000170: 25a9 7b3f 93a6 8b3f 026d 753f b917 873f
00000180: 6626 7a3f 88a8 783f 4d4e 833f 965a 883f
1.0458252 0.95580024 1.0363463 0.94706494 1.0286614 0.9991861 0.965404 1.0550022
1.0720859 0.9813813 1.1354725 0.8982698 0.94952685 0.9313701 1.02049 1.0491449
0.9016272 1.0420586 1.0947437 1.0231307 1.102747 1.055795 1.1052034 0.97008497
0.88800097 1.0319376 0.8856788 0.93325025 1.1658458 1.0484381 1.1183674 1.1419489
0.99558944 1.0420399 1.0533367 1.0351793 1.1294245 1.0281619 1.113165 0.88769007
1.0895572 1.0588144 0.8538319 0.84183854 1.0008292 1.0557745 1.0227515 0.9298147
1.0005857 1.0489696 1.051668 1.0977479 1.0154723 1.07512 0.96057695 1.0199077
1.1212885 0.9616486 0.9997574 1.0277256 0.9930512 1.0254618 1.0174428 1.1744077
1.081311 1.0892382 1.02758 1.133194 1.1059159 1.1545987 0.999233 1.0027901
1.1423463 0.93957114 1.0804334 1.0101724 1.1073673 1.04714 1.0513214 0.98459846
1.1145668 0.9466262 1.1109414 0.9888939 1.1672924 0.982167 0.97951263 1.0362666
1.0200521 1.1130788 1.0344731 0.955886 0.9830497 1.091021 0.9586946 1.0554115
0.9771484 0.9713216 1.025827 1.0652645

bias f4 [100]
00000000: bc34 503c 01f8 12be 5260 333e 1a70 083e
00000010: 7bd7 60bd 436c 13bd ab48 34be 7518 7fbd
00000020: b602 08be 1270 f0bd d617 ef3c 7546 d4bd
00000030: 17ac 423e cdaa 03bd 4b92 4f3e 52e5 15be
00000040: 99eb 08be da82 10be d80d 4c3d f0c2 24be
00000050: d1b4 c93c 0efb 8e3e 38ac c43d bd45 1fbe
00000060: b440 1bbc 5fd6 573e 9f2a d8bd 0bec a13e
00000070: 29ba 7b3d f281 073e b343 4abe 155d 33be
00000080: 00e9 8cbd 4313 553e a3d3 20be 28e2 aa3d
00000090: a66d d3bc 0373 2dbe c43a 973e b6f2 1b3e
000000a0: e5c7 bf3c f808 24be 30a1 9c3b d5e0 613e
000000b0: ce90 2fbe 0500 f3bd 8db3 373e a53a 4dbc
000000c0: 81a8 29be 435e 3e3c ac25 ffbd ad04 cf3d
000000d0: 95f5 da3d 0bee 17be 5a4d 0a3e db75 1f3e
000000e0: 4fa1 8abe 09bc df3d 5c1b 0bbe 5e50 903e
000000f0: 1d5a 28bd a5b4 7abd 826a 5c3e 8a96 2f3e
00000100: c537 853e 0964 f23c 1c69 6bbe 0ed0 e63d
00000110: e0d9 c33d ce5c 2cbe 5310 a83b 7958 9c3d
00000120: e209 563e 5f56 97bd 025d 3dbe 6bd2 d73d
00000130: fa9a c73d c14b 11be aa1f 9ebc 0059 ac3d
00000140: 555e 97bd 7732 e63d fbec fa3d 33f4 f0bd
00000150: e4ab 16be 1195 0f3e d6ee 50bd 96ee 82be
00000160: bfcd 39be 5c94 583d fea0 d73c ead7 a5bd
00000170: dd39 60bd ea5d de3b 799b 1cbd 6d38 43be
00000180: b196 d1bc 7f6b 613c 3f96 a9bd a471 e73d
0.012707885 -0.14352418 0.17517212 0.13324013 -0.054893 -0.03599192 -0.17605846 -0.062279183
-0.13282284 -0.11740126 0.02918617 -0.10365001 0.1901096 -0.03214531 0.2027065 -0.1463826
-0.13371123 -0.14112416 0.04981789 -0.16089988 0.024622353 0.27925915 0.096031606 -0.15553947
-0.009475876 0.2107787 -0.10555004 0.316254 0.061456833 0.13233164 -0.19752388 -0.17515977
-0.06880379 0.20808129 -0.15705733 0.08343917 -0.02580912 -0.16938405 0.29537022 0.15229306
0.023410747 -0.16019046 0.0047799572 0.22058423 -0.17145082 -0.11865238 0.17939587 -0.012526189
-0.16568185 0.011619153 -0.12458357 0.10108314 0.10691372 -0.148369 0.1350607 0.15572302
-0.27076194 0.10924537 -0.13584656 0.28186315 -0.041101564 -0.061207432 0.21525005 0.1714727
0.2601911 0.029588716 -0.22989315 0.11270152 0.09563041 -0.16832277 0.005128899 0.07634062
0.20902207 -0.07389521 -0.18492511 0.10538181 0.09746356 -0.14189054 -0.019302208 0.08415413
-0.07391039 0.11240094 0.12252232 -0.11765327 -0.14714009 0.14021708 -0.05100902 -0.25572652
-0.18144892 0.05287586 0.026321884 -0.08097823 -0.054742683 0.006786098 -0.038234208 -0.19064493
-0.02558455 0.013758539 -0.0828061 0.11300972

running_mean f4 [100]
00000000: 9f58 8d3f a091 723f e182 b43f 490c 643f
00000010: 6853 8a3f fe9b 503f ef0d e03e ab76 8c3f
00000020: 97df a93f 9465 b03f a878 a23f 2b15 5f3f
00000030: 7c90 c63f ce52 663f 0e1e 9a3f 2eb7 d43f
00000040: 4514 6d3f 4fd9 8d3f 3996 8d3f 968a 9b3f
00000050: f627 b63f f97b cb3f 7752 e13f 00d0 3d3f
00000060: a676 863f 0626 c53f b181 7b3f c6be b73f
00000070: 8fa0 ec3f f6a4 6f3f 5ca4 b13f d160 a93f
00000080: 9384 773f d42f bc3f d4f5 ae3f 9ea7 a93f
00000090: 8e18 0a40 0988 123f dc31 543f bb10 3a3f
000000a0: a038 c23f d564 913f 40f3 803f 8819 723f
000000b0: cbe5 e83e de39 823f 1303 823f 709d 8d3f
000000c0: 16a3 7c3f 2be2 843f 95b1 c73f a6a1 ed3f
000000d0: 4e55 783f b4e4 263f 5072 b13e e0ce 3f3f
000000e0: a2c4 ca3f 0e22 ba3f 59d6 b13f 236e b93f
000000f0: a455 9c3f ae97 cf3f 9b4a b93f 87c0 763f
00000100: 97af f33f bf0b ce3f d91a 033f ef37 d03f
00000110: c649 ae3f 819d f13f 4c78 ae3f 1668 983f
00000120: 2838 b03f 2b61 a83e d2de 313f ef9b a83f
00000130: 5dfc a33f d258 a53f fdf0 9b3f 968e 663f
00000140: 2ae2 963f d834 a03f a1b8 af3f 892c b53f
00000150: 0a84 e43f b6f9 4f3f e077 073f 6859 0940
00000160: eeef 0b40 4a80 663f 7289 a53f c2ad 443f
00000170: 21dd 823f fd2a 603f b83b a03f 939e a53f
00000180: 7811 903f 5a31 2f3f 03b9 a83f 80a7 c63f
1.104267 0.94753456 1.4102441 0.89081246 1.0806704 0.81488025 0.4376063 1.0973715
1.3271359 1.3780999 1.2693071 0.87141675 1.5512843 0.899701 1.2040422 1.6618402
0.92609054 1.1081942 1.1061469 1.2151668 1.4230945 1.5897208 1.7603291 0.7414551
1.0504959 1.5402229 0.9824477 1.4355094 1.8486499 0.93611085 1.3878284 1.3232671
0.9668667 1.4702096 1.3668771 1.3254278 2.1577487 0.57238823 0.8288858 0.7268178
1.517353 1.1358896 1.0074234 0.9457021 0.45487818 1.017391 1.0157188 1.1063671
0.9868635 1.0381521 1.5601069 1.8564956 0.97005165 0.65192723 0.34657526 0.7492504
1.5841258 1.4541643 1.3893539 1.4486736 1.2213635 1.6218164 1.4475893 0.96387523
1.9037961 1.6097335 0.5121284 1.626707 1.3616264 1.8876191 1.3630462 1.1906765
1.3767138 0.32886633 0.6948062 1.3172587 1.281139 1.2917731 1.2182919 0.9006132
1.178777 1.2516127 1.3728219 1.4154216 1.7852795 0.81240404 0.5291729 2.146082
2.1865191 0.90039504 1.293257 0.76827633 1.0223733 0.87565595 1.2518225 1.2939018
1.1255331 0.6843468 1.3181461 1.5519867

running_var f4 [100]
00000000: 8bbc ee3f 6bce 9140 3f86 5d40 d499 0640
00000010: 57fa f63f a149 c03f 1a53 8e3f 7234 d33f
00000020: 7f9b 5f40 3f42 5840 3423 fb3f 93ef e03f
00000030: 0f21 8040 492b 0040 65d8 1240 3384 7e40
00000040: eefb 3840 8db2 4e40 411e cb3f cd7a 9240
00000050: c212 8140 93f8 9b40 1087 8240 a4ff 2e40
00000060: b4e3 b13f 78fc 4840 3c08 c03f 3b46 8140
00000070: 5855 f640 146e f13f 54d6 0d40 0d12 6840
00000080: 2cc8 d73f ca98 5f40 8171 8040 fdbd bf40
00000090: 2ccd f840 d14e 8e3f fa3b ea3f a0fa 4040
000000a0: 8467 8440 06ad 7840 9938 0640 0523 f33f
000000b0: 2d8d 963f 555d e63f bfb9 2a40 4c1f 0440
000000c0: d930 fd3f a1fa c43f f749 8f40 54fd 7440
000000d0: dbdf fb3f 7bd3 a93f 77a8 1d3f d408 be3f
000000e0: bd5b b440 2d86 2840 1023 3e40 5cb7 7c40
000000f0: ecf3 8640 69c3 5340 783a 6040 59b1 b43f
00000100: 4203 e640 2694 5340 0b37 b73f 3482 3a40
00000110: 3f4c 7c40 de81 4540 5161 4040 e552 5b40
00000120: 0550 2e40 e47e a53f d47b e73f bf16 9340
00000130: c042 3340 4ed8 0d40 934f 2540 9ee0 263f
00000140: 77cf cc3f 311f 1241 162b 1740 3b30 5540
00000150: 2721 cf40 322f 1940 7580 a43f b451 9f40
00000160: b41c 7c40 7bd4 b23f cc09 1540 f6b6 8840
00000170: 870b e53f 5b71 603f e36e 2940 40f4 0740
00000180: 8d76 3140 7411 6440 3f36 f83f 14bf 4a40
1.8651289 4.5564475 3.4613187 2.103139 1.9295148 1.502247 1.111911 1.650038
3.4938657 3.3790433 1.9620118 1.7573112 4.0040355 2.002642 2.2944577 3.9768188
2.8903766 3.2296479 1.5868608 4.5774903 4.03354 4.8740935 4.078987 2.734353
1.3897614 3.1404095 1.5002513 4.039823 7.697918 1.8861718 2.2162066 3.6261017
1.6857963 3.4937005 4.0138555 5.991942 7.7750454 1.1117803 1.8299553 3.015297
4.137636 3.8855605 2.0972044 1.8995062 1.1761833 1.7997233 2.667587 2.0644102
1.9780532 1.5388986 4.477779 3.827962 1.967769 1.3267664 0.6158518 1.4846444
5.6361985 2.6331894 2.97089 3.9486914 4.2172756 3.308802 3.5035686 1.4116622
7.1878977 3.3059173 1.4313673 2.914197 3.9421537 3.0860515 3.0059397 3.4269345
2.723634 1.2929349 1.8084664 4.5965266 2.800949 2.2163272 2.5829818 0.6518649
1.6000813 9.132615 2.3620048 3.3310688 6.472797 2.3935056 1.2851702 4.9787235
3.939252 1.3971094 2.328723 4.272334 1.7894143 0.87672967 2.647393 2.1242828
2.7728608 3.5635653 1.9391555 3.1679125

weight f4 [4, 100]
00000000: b182 9b3d cbaf 0f3d 7d80 ffbd 193e 6abd
00000010: d600 39be 1a9a e8bd b887 9dbc 9e6e 403d
00000020: b297 5a3e cae2 b9bd fb71 323e dec8 c3bc
00000030: 8427 3cbd 2168 52bd fe86 fabd f2da 86bd
00000040: a97e c03c e714 523e c9a9 b63d 2b53 943d
00000050: 7202 38bd 9734 b3bd d471 0c3b d6dd 023e
00000060: 2d55 fabd b0d0 0ebe 19d7 c8bd 14f7 c5bd
00000070: 8abf c33d f98f 32be db60 4c3e 04ad 523e
00000080: 3585 30be 9b1a 50be aa3a 9cbd 0ff5 323e
00000090: e360 053e e319 1bbe 8c82 35bd 4f4b f03d
000000a0: c931 273e 997e ef3d f84e c9bd 9bae ac3c
000000b0: 6ce6 4cbc 72e5 d73d d04f 9fbd a90b 14be
000000c0: ed55 c8bd c1f9 2abe 263b 4b3e a3fd aabc
000000d0: f7e2 873d 6d5d 24be 8407 72bd afa2 eb3d
000000e0: 8c4c 873d c5b9 44bd 02e2 c9bd 6262 fbbd
000000f0: d671 143e 26d6 43bc 6c7a debd 7cb6 0c3d
00000100: e87c 8fbb 0f22 a33d 9fa9 423d 3653 d03d
00000110: 2197 643e efdd 4a3e 329b 823b 1ad6 0f3e
00000120: 8f8d 8a3d 08fe de3b f3e7 b5bd d8f2 2d3e
00000130: 372c 013e e185 d13d 2579 26be 3b06 2ebe
00000140: cc2f 3abe 28ab 353c 9e60 f03d 85d3 bbbd
00000150: 669d 8a3d 269a 55bd f8bd cbbd 3d6b d93d
00000160: 4d69 273d 5de4 2e3e 0074 e6bc ec3f 3bbd
00000170: c57f 09be c67a 74be fd77 d0bd defa de3d
00000180: 6fc1 c8bd 33b0 743d d5d7 b03c e182 94bd
00000190: 0354 02be d241 97bd 3619 ba3d 3058 153e
000001a0: c52c 08bc 4f80 5a3d fb79 8e3d 0c5b 193e
000001b0: a0b4 f0bc 0186 483d e6bf b3bc 5609 d7bc
000001c0: 2e72 453d 1811 433c 95d2 e73d fd60 773d
000001d0: 32a7 19bc be69 c5bd 19db 973d 8ad4 b4bd
000001e0: 8148 f5bd b406 0c3e 673b 25be e68c 37bd
000001f0: 188a 00bd e12d 803c 1bf7 92bc 833b d4ba
00000200: 9884 15be 9cd1 c03d cc3f fbbb 5991 0bbe
00000210: 1365 d73b 61ae 763d 2696 97bd 31d7 04bd
00000220: 6c01 213d c2f6 9abd 7545 dcbc 650f 593d
00000230: 4ba7 be3d 5e8d 02be 6582 873c 1da0 3dbd
00000240: c000 ad3d 6ec5 b6bd e75e bdbd 220a 1d3a
00000250: 521d d43c 622f 4cbd 9e73 96bd 795b d9bd
00000260: d3a1 813d b860 7a3c a469 083e 533a d5bd
00000270: 50a1 3bbe c823 d5bd ebb9 be3d fad1 e63c
00000280: 0c57 25bd 038e 0c3e 5951 da3d 2d60 273e
00000290: c693 f43d 3930 1dbe 512c 703d 69cb 703c
000002a0: 7a7b c2bd 237c a73c 7473 1dbe e89b 84bd
000002b0: b736 e5bd e913 4b3d 327f 91bd 660f acbd
000002c0: bb9d f63d 0a15 13be 8d40 ae3d e2a6 a33d
000002d0: 587a e2bc 897d 1f3d 6541 06be be7f a13d
000002e0: bc5c 73bc e114 043e b7f1 143e 1b6d 0fbc
000002f0: c40e 1b3d 88e7 01be 71d7 c53d c03e 26be
00000300: 1c45 f23c 917b fe3d a2f0 973d 6b6d 07be
00000310: 1356 5abd 85fb 78bc b50f 0e3e 9ceb f7bd
00000320: 1545 cf3d f1d9 8dbd 82ba 86bc 7d85 543d
00000330: a257 693d 46dc e9bd 571f fcbd b80f 2cbe
00000340: 42f7 6cbd ea90 b3ba c072 45be 3945 993c
00000350: 3ec9 e0bc 7be0 d33d 2f35 7dbd def2 d3bd
00000360: d541 24bd 1911 ddbd fd96 3bbe 4b5b 15be
00000370: 4b8c ec3d c8da 003e 1248 c03d 0e09 8abc
00000380: 2f02 77bb 932e cd3d dcec 283d 1346 513a
00000390: 8148 01be 7676 0e3e 204e eebd 4a5f 41be
000003a0: d8f7 db3d 1155 d03d de89 983d d626 0dbd
000003b0: 2554 bebd dfcc 61bc dc4a 393e 95ad 1e3d
000003c0: eeab 02be 062f c8bd 6bb1 ca3b dd7d 65bc
000003d0: b4be debd da2f ec3c 8eea 7a3d c0bb 73bd
000003e0: 2789 d73d f3d1 053e 3386 143d 3676 f43d
000003f0: adf4 efbd 630b 2a3d 1ad6 8bba 31ff 063d
0.07593287 0.03507976 -0.12475679 -0.057188127 -0.18066725 -0.113575175 -0.019229755 0.046980493
0.2134693 -0.0907646 0.17426293 -0.023899492 -0.045936123 -0.051368836 -0.12232779 -0.06584729
0.023497896 0.20515786 0.08919103 0.072424255 -0.044924207 -0.08750265 0.0021430152 0.12779936
-0.12223277 -0.13946795 -0.098066516 -0.09666267 0.095580176 -0.17437734 0.19958822 0.20573813
-0.17238314 -0.20322649 -0.07628377 0.17476295 0.1302524 -0.15146594 -0.044313952 0.11733114
0.16327585 0.116940685 -0.09829515 0.021079352 -0.012506109 0.1054181 -0.07778895 -0.14457573
-0.09782014 -0.16696836 0.19846782 -0.020872897 0.06635087 -0.16051264 -0.0590892 0.11505639
0.06606397 -0.048028726 -0.09857561 -0.122746244 0.1449655 -0.011952912 -0.10863194 0.03435372
-0.0043789037 0.079654805 0.047525045 0.10172121 0.22323276 0.19811223 0.003985786 0.14046517
0.067652814 0.006805185 -0.088821314 0.16987169 0.12614523 0.102306135 -0.1625715 -0.16994564
-0.18182296 0.01108817 0.11737178 -0.091712035 0.067683026 -0.05214896 -0.09948343 0.10616157
0.040871907 0.17079301 -0.028131485 -0.045715258 -0.13427646 -0.2387496 -0.10179136 0.10887693
-0.098025195 0.05973835 0.021587292 -0.07251526 -0.1272736 -0.07385601 0.0908684 0.14584422
-0.008311455 0.05334502 0.0695686 0.14976138 -0.029383004 0.04895592 -0.02194209 -0.026249569
0.048204593 0.011905931 0.11319462 0.06039523 -0.009378241 -0.09639309 0.074148364 -0.08829601
-0.1197672 0.13674432 -0.16135941 -0.044812106 -0.031381696 0.015646877 -0.017940095 -0.0016192052
-0.14601362 0.0941498 -0.0076675173 -0.13629664 0.0065733283 0.060224894 -0.074016854 -0.032431785
0.039307997 -0.075665966 -0.026888588 0.052993197 0.09309252 -0.1274924 0.01654167 -0.046295274
0.08447409 -0.089243755 -0.09246617 0.00059905846 0.025892887 -0.049849875 -0.07346271 -0.1061315
0.06329694 0.015281849 0.13321549 -0.10411515 -0.18323255 -0.10407215 0.09312805 0.028176297
-0.040366217 0.13726048 0.10660047 0.16345282 0.11942248 -0.15350427 0.058636013 0.014696934
-0.094962075 0.020444935 -0.15376073 -0.06475049 -0.11192077 0.049579535 -0.07104339 -0.084013745
0.120418034 -0.14363495 0.08508406 0.07990815 -0.027646229 0.03893808 -0.13110884 0.07885693
-0.014853653 0.1289859 0.14545332 -0.00875404 0.03785588 -0.12685978 0.09660233 -0.16234875
0.02957397 0.12425912 0.07418944 -0.13225333 -0.053304743 -0.015196686 0.1387318 -0.12105486
0.10120598 -0.06926335 -0.016446356 0.051885117 0.05696834 -0.11418967 -0.12310665 -0.16802871
-0.05785299 -0.0013699804 -0.19282055 0.018709766 -0.02743971 0.103455506 -0.061818298 -0.103490576
-0.040101845 -0.10794277 -0.18319316 -0.14585607 0.11550196 0.12583458 0.09388746 -0.01685002
-0.003769051 0.10018649 0.04124151 0.0007983159 -0.12625314 0.13912377 -0.11635995 -0.18884006
0.10740632 0.10172475 0.07448171 -0.034460865 -0.09293393 -0.013781755 0.18094963 0.03873976
-0.12760898 -0.09774594 0.0061857007 -0.014007059 -0.108762175 0.028831411 0.061258845 -0.059505224
0.105242066 0.1306837 0.036260795 0.119366094 -0.1171659 0.041514765 -0.0010668666 0.032958213

bias f4 [4]
00000000: 196e d63c 5da0 353e 54e9 893d 8ca9 1dbe
0.026175546 0.17736955 0.06733957 -0.15396708
